net/anbn_srn2_30.pth (torch, 2111 bytes, 6 tensors)

H0 f4 [2]
0	0xbef4781b	-0.47747883
1	0x3f966c42	1.1751788

W f4 [2, 2]
0	0x3f57901e	0.8420428
1	0xbf9443bc	-1.1583171
2	0xbf591a81	-0.84806067
3	0x3fd49c73	1.6610245

U f4 [2, 2]
0	0x402fc229	2.7462256
1	0xbdce398c	-0.1006957
2	0x400bd7df	2.1850507
3	0x3f548c63	0.83026713

hid_bias f4 [2]
0	0xbcb8c1ff	-0.022553442
1	0x3e845b7a	0.2585104

V f4 [2, 2]
0	0x4069c2c0	3.6525116
1	0xc069bda7	-3.6522005
2	0x3eef7b7c	0.467739
3	0xbeef17b3	-0.4669777

out_bias f4 [2]
0	0xc011e271	-2.279446
1	0x4011e6f6	2.2797217
