net/anbncn_srn3_130.pth (torch, 2135 bytes, 6 tensors)

H0 f4 [3]
0.7389209 -1.1511235 -0.17753479
00000000: ec29 3d3f 0458 93bf aecb 35be

W f4 [3, 3]
0.9303535 1.4821866 -1.2125399 -0.5658821 -0.7877836 0.9317153 2.5955458 -0.09189747
-0.73690224
00000000: a62b 6e3f 4ab8 bd3f 8234 9bbf a6dd 10bf
00000010: 30ac 49bf e584 6e3f 6c1d 2640 be34 bcbd
00000020: a0a5 3cbf

U f4 [3, 3]
1.851395 -0.7061935 0.47807765 -1.6435521 0.9333 0.30019718 0.75403875 -0.3591434
1.9125886
00000000: 83fa ec3f 19c9 34bf 98c6 f43e ea5f d2bf
00000010: c0ec 6e3f 72b3 993e af08 413f a5e1 b7be
00000020: b4cf f43f

hid_bias f4 [3]
0.7641572 0.00090936985 -0.048390154
00000000: ce9f 433f c762 6e3a c134 46bd

V f4 [3, 3]
-0.31281957 -2.976109 11.484567 1.5273726 2.678427 -7.18247 -5.7492747 -0.015471645
21.414923
00000000: e329 a0be 9278 3ec0 c9c0 3741 f280 c33f
00000010: 596b 2b40 cbd6 e5c0 0ffa b7c0 c87c 7dbc
00000020: c351 ab41

out_bias f4 [3]
-2.302875 3.0229437 -1.5304424
00000000: 4e62 13c0 e977 4140 89e5 c3bf
