net/anbncn_srn3_100.pth (torch, 2135 bytes, 6 tensors)

H0 f4 [3]
0	0x3f45134e	0.7698258
1	0xbf9942a3	-1.1973461
2	0xbe3698be	-0.17831704

W f4 [3, 3]
0	0x3f6d467e	0.9268569
1	0x3fb2e1f2	1.3975203
2	0xbf86864f	-1.0509738
3	0xbf00803c	-0.5019567
4	0xbf3fd4f3	-0.7493431
5	0x3f670995	0.90248996
6	0x401a0038	2.4062634
7	0xbc88e35d	-0.016709978
8	0xbf3b3692	-0.7313014

U f4 [3, 3]
0	0x3fd5d748	1.6706324
1	0xbf2abd07	-0.6669468
2	0x3ef00676	0.4687993
3	0xbfc6c21d	-1.5527989
4	0x3f890798	1.0705442
5	0x3e92790d	0.2860798
6	0x3f3cfb66	0.73821104
7	0xbea3c8ec	-0.3198923
8	0x3fee3efe	1.8612974

hid_bias f4 [3]
0	0x3f47274e	0.7779435
1	0xbb9623fa	-0.0045819255
2	0xbd8f8c17	-0.07009142

V f4 [3, 3]
0	0xbe5cf781	-0.2157879
1	0xc03a1def	-2.908077
2	0x412beafd	10.74487
3	0x3fcdd858	1.6081648
4	0x402546b3	2.5824401
5	0xc0ee0881	-7.438538
6	0xc0ade943	-5.4347243
7	0xbdfb5795	-0.12272564
8	0x41a3f378	20.493881

out_bias f4 [3]
0	0xc00c1b0d	-2.189151
1	0x403aecdb	2.9207065
2	0xbfcf6006	-1.6201179
