net/anbncn_srn3_170.pth (torch, 2135 bytes, 6 tensors)

H0 f4 [3]
00000000: 295c 3c3f 50c2 89bf cd7c 7cbd
0.73578125 -1.0762424 -0.061642457

W f4 [3, 3]
00000000: 6869 693f 1062 c63f 47da c2bf 6e7c 39bf
00000010: 47e0 54bf 0ced 7a3f 10f1 2440 49b6 75be
00000020: ad1a 46bf
0.9117646 1.5498676 -1.5222863 -0.7245549 -0.8315472 0.98017955 2.5772133 -0.23995318
-0.77384454

U f4 [3, 3]
00000000: 1341 0a40 de92 44bf a043 fd3e 30cf e4bf
00000010: 31af 403f 6631 b23e f21b 463f 20de b2be
00000020: a2a7 ff3f
2.1602218 -0.767866 0.49465656 -1.7875729 0.7526732 0.34803313 0.7738639 -0.34935093
1.9973032

hid_bias f4 [3]
00000000: 39a0 353f 44c0 663b c42e 9cbc
0.70947605 0.0035209814 -0.019065268

V f4 [3, 3]
00000000: 5f8b c1be a3e0 45c0 57ea 3e41 0eac b73f
00000010: c70e 3340 4fc5 dac0 18cc c0c0 8ea8 503d
00000020: ede1 af41
-0.37801644 -3.0918357 11.932212 1.4349382 2.797777 -6.8365855 -6.024914 0.050941996
21.985315

out_bias f4 [3]
00000000: e591 20c0 564b 4c40 c84c 87bf
-2.5089047 3.1920981 -1.0570307
