net/anbncn_srn3_30.pth (torch, 2127 bytes, 6 tensors)

H0 f4 [3]
0	0x3f2f91c3	0.6858179
1	0xbf864454	-1.0489602
2	0xbd9e1b22	-0.07720019

W f4 [3, 3]
0	0x3f5b8552	0.85750306
1	0x3f839d64	1.0282407
2	0xbf8c5828	-1.0964403
3	0xbf0afebe	-0.54294956
4	0xbf0ecc3e	-0.557804
5	0x3f488875	0.78333217
6	0x40286cc8	2.6316395
7	0x3dfbaeba	0.12289186
8	0xbf04756f	-0.5174169

U f4 [3, 3]
0	0x3f9746b9	1.1818458
1	0xbf20e4b6	-0.62848985
2	0x3ed946b7	0.42436764
3	0xbf9ee63c	-1.2414012
4	0x3f65f909	0.8983312
5	0x3e5b35e1	0.21407272
6	0x3f167a01	0.58779913
7	0xbe9a2a5b	-0.3011044
8	0x3fce2602	1.6105349

hid_bias f4 [3]
0	0x3f35b97a	0.7098614
1	0xbd31922f	-0.043352302
2	0xbe00bb0d	-0.12571354

V f4 [3, 3]
0	0x3f86b247	1.0523156
1	0xc0575918	-3.3648129
2	0x40a133c4	5.037569
3	0x3fc02351	1.5010778
4	0x40103b68	2.2536259
5	0xc09a33ae	-4.8188086
6	0xc08115fb	-4.033933
7	0xbedc08b1	-0.4297538
8	0x412a8aae	10.658857

out_bias f4 [3]
0	0xc01387ce	-2.3051639
1	0x403c886a	2.945826
2	0xbfa817e7	-1.3132294
