net/anbncn_srn3_20.pth (torch, 2127 bytes, 6 tensors)

H0 f4 [3]
00000000: 6c65 133f d811 59bf 3401 153d
0.5757663 -0.8479285 0.0363781

W f4 [3, 3]
00000000: 9aad 533f 7e4f 6e3f 1559 99bf 1236 07bf
00000010: 6c7e f5be d801 433f 85af 2a40 8a89 853d
00000020: 79db f1be
0.8268677 0.93090045 -1.1980311 -0.5281688 -0.47948015 0.7617469 2.6669629 0.06520374
-0.47237757

U f4 [3, 3]
00000000: d50a 903f 5618 22bf 6483 bc3e fbea 9bbf
00000010: c6a4 4f3f 8b8f 213e eaa2 143f 8062 c2be
00000020: 2bcc c63f
1.1253306 -0.63318384 0.36818993 -1.2181085 0.811108 0.15777414 0.5806109 -0.37965775
1.5531057

hid_bias f4 [3]
00000000: 5982 333f 6772 cdbd 0634 0bbe
0.7012077 -0.10031586 -0.13594064

V f4 [3, 3]
00000000: 5d67 ae3f 3c3e 56c0 01f1 8240 60ba a93f
00000010: d030 0540 b356 80c0 cfcc 60c0 9995 e9be
00000020: 3677 0741
1.3625294 -3.3475485 4.0919194 1.3260002 2.0811043 -4.0105834 -3.5125005 -0.45621946
8.466604

out_bias f4 [3]
00000000: d5f1 10c0 8d9e 3340 a71b 8dbf
-2.2647603 2.8065522 -1.1024064
