net/anbn_srn2_0.pth (torch, 2103 bytes, 6 tensors)

H0 f4 [2]
0.0008741416 0.00041828823
00000000: a626 653a b24d db39

W f4 [2, 2]
0.0023422502 0.00013080012 -0.0013326291 -0.0013093718
00000000: 7080 193b 6427 0939 9dab aeba 3a9f abba

U f4 [2, 2]
0.0015758898 -6.65547e-05 -0.0004037049 -0.00061750645
00000000: 168e ce3a 4893 8bb8 5ba8 d3b9 28e0 21ba

hid_bias f4 [2]
-0.0019226994 -0.0012015308
00000000: 1603 fcba af7c 9dba

V f4 [2, 2]
0.001969564 -0.0016561188 -0.0004125869 0.001179993
00000000: cd13 013b 2012 d9ba 7a50 d8b9 ffa9 9a3a

out_bias f4 [2]
-0.00023248012 0.00055149815
00000000: e8c5 73b9 6a92 103a
