net/anbncn_srn3_90.pth (torch, 2127 bytes, 6 tensors)

H0 f4 [3]
00000000: 4e34 423f fdaa 99bf db23 68be
0.7586106 -1.2005306 -0.22669928

W f4 [3, 3]
00000000: 60f8 6d3f 5c76 ad3f 5173 80bf e931 f8be
00000010: 6085 3ebf 8a08 663f fff3 1340 a51b 853d
00000020: 1052 39bf
0.92957115 1.3551745 -1.0035192 -0.48475578 -0.74422264 0.8985678 2.3117673 0.064994134
-0.7239084

U f4 [3, 3]
00000000: b1bb cc3f f0c5 22bf 8692 eb3e c29f c2bf
00000010: c621 8b3f 70bf 893e 6b57 3b3f 19fb 9fbe
00000020: c4c0 ec3f
1.5994779 -0.6358328 0.46010226 -1.5205004 1.0869682 0.26903868 0.73180264 -0.3124626
1.8496327

hid_bias f4 [3]
00000000: bd8b 483f 28c3 02bc a50b 95bd
0.78338224 -0.007981099 -0.07277612

V f4 [3, 3]
00000000: 438a 2fbe 5471 38c0 f3ec 2541 0c83 d23f
00000010: 50ed 2140 ba2a eec0 bd86 a9c0 e5b3 41be
00000020: c4f0 a041
-0.17142586 -2.881917 10.370349 1.6446242 2.5301094 -7.4427156 -5.2976975 -0.1891628
20.117561

out_bias f4 [3]
00000000: 18cc 0ac0 5c69 3a40 9828 d8bf
-2.168707 2.9126806 -1.6887388
