net/anbncn_srn3_0.pth (torch, 2119 bytes, 6 tensors)

H0 f4 [3]
000000 e0 e5 25 3a 76 0c 90 3a cf 55 bb 39
       0.00063285045 0.0010990042 0.00035731352

W f4 [3, 3]
000000 5c ee 88 ba 20 ad 30 3a 08 e9 22 bb aa 4c ca ba
       -0.0010447013 0.0006739665 -0.0024858136 -0.0015434225
000010 f9 5f 2a 3b fe fe cc b9 28 d4 87 3a 4e e8 c9 ba
       0.0025997146 -0.00039099896 0.001036291 -0.0015404315
000020 04 c4 d1 3a
       0.0016003852

U f4 [3, 3]
000000 10 93 4e ba 2e 09 ed b9 3a bb e7 3a 44 9f e7 39
       -0.00078801904 -0.00045211002 0.0017679699 0.00044178416
000010 cb b1 fe 3a a4 e6 a8 b9 ec 2b e0 39 08 3a cb b9
       0.0019431649 -0.00032215298 0.00042757334 -0.00038762414
000020 c2 03 3e ba
       -0.0007248485

hid_bias f4 [3]
000000 99 c7 11 3b aa 1e 1c ba 02 75 b1 ba
       0.0022244214 -0.0005955497 -0.0013538899

V f4 [3, 3]
000000 a8 15 da 39 88 75 df ba 70 45 87 3a 28 f4 08 3b
       0.00041596335 -0.0017048577 0.0010320377 0.0020897482
000010 76 5c 34 3b f0 39 6f 39 d0 4e 0c 39 a8 46 da 38
       0.0027520931 0.000228144 0.000133808 0.00010408211
000020 de 37 43 3b
       0.0029787938

out_bias f4 [3]
000000 c3 f7 da 3a d9 cd f7 3a e6 ba 51 3a
       0.0016705919 0.0018905952 0.00080005673
