net/anbncn_srn3_150.pth (torch, 2135 bytes, 6 tensors)

H0 f4 [3]
000000 bf b3 43 3f 32 93 92 bf 69 85 01 be
       0.76446146 -1.145117 -0.12648548

W f4 [3, 3]
000000 87 14 6d 3f 57 91 c1 3f 63 81 ac bf e8 d6 26 bf
       0.9260945 1.5122479 -1.3476986 -0.6517167
000010 76 05 4d bf 5a d6 74 3f 0b a5 27 40 cc 2f 43 be
       -0.8008646 0.95639575 2.6194484 -0.19061202
000020 fe 50 43 bf
       -0.7629546

U f4 [3, 3]
000000 37 1a 00 40 2c 71 3d bf 8c 27 fc 3e 77 62 db bf
       2.0016 -0.7400081 0.49248922 -1.7139424
000010 4d 39 58 3f 8a af a1 3e fa 84 43 3f 1a b1 b3 be
       0.84462434 0.31579238 0.7637478 -0.35096055
000020 7a 59 f9 3f
       1.9480431

hid_bias f4 [3]
000000 c7 9d 3c 3f ef b8 2a 3c 85 cf 0c bd
       0.7367825 0.010420068 -0.034377594

V f4 [3, 3]
000000 38 37 b9 be ff 67 41 c0 1f f0 3c 41 9c 24 bb 3f
       -0.3617494 -3.0219724 11.808623 1.4620547
000010 9f 6f 30 40 df 1e e0 c0 71 50 bc c0 93 32 89 3b
       2.7568128 -7.0037684 -5.8848195 0.004186937
000020 aa 81 ae 41
       21.813313

out_bias f4 [3]
000000 87 61 1b c0 24 19 48 40 75 f9 a6 bf
       -2.4278276 3.1265345 -1.3044878
