net/anbncn_srn3_180.pth (torch, 2135 bytes, 6 tensors)

H0 f4 [3]
000000 7f 1d 37 3f e3 bb 85 bf 43 74 2e bd
       0.7152938 -1.0447963 -0.042591345

W f4 [3, 3]
000000 c1 f4 67 3f d7 bb c8 3f 31 d4 cc bf 5a 8f 3b bf
       0.9060784 1.5682324 -1.6002256 -0.7326561
000010 3d 37 58 bf 88 30 7d 3f cb 8f 22 40 f6 ad 88 be
       -0.84459287 0.9890218 2.5400264 -0.26695222
000020 26 6e 48 bf
       -0.78293073

U f4 [3, 3]
000000 39 d3 0d 40 91 cc 47 bf 46 e9 00 3f bb ac e8 bf
       2.216017 -0.7804652 0.50355947 -1.8177713
000010 7b 27 3e 3f 36 48 b6 3e 31 e4 46 3f 9b 08 bf be
       0.7427899 0.35601968 0.7769194 -0.37311253
000020 46 0e 01 40
       2.0164962

hid_bias f4 [3]
000000 8d 1c 34 3f 86 95 12 ba 60 9b 55 bc
       0.70356065 -0.0005591739 -0.013037533

V f4 [3, 3]
000000 8b f9 c6 be e1 c7 47 c0 d8 90 3e 41 f6 49 b2 3f
       -0.3886226 -3.1215746 11.910362 1.3928821
000010 8e eb 35 40 b3 d7 d5 c0 b6 ed c2 c0 09 65 97 3d
       2.842502 -6.6825805 -6.0915174 0.07392318
000020 8e 58 b0 41
       22.04324

out_bias f4 [3]
000000 5c 11 23 c0 02 8a 4e 40 2d de 7f bf
       -2.5479345 3.2271733 -0.9994839
