net/anbncn_srn3_120.pth (torch, 2135 bytes, 6 tensors)

H0 f4 [3]
0.73528934 -1.150758 -0.17657375
00000000: ec3b 3c3f 0a4c 93bf c0cf 34be

W f4 [3, 3]
0.9305295 1.466886 -1.1454563 -0.53266096 -0.7765625 0.9192504 2.5337708 -0.06392124
-0.72778624
00000000: 2e37 6e3f ecc2 bb3f 509e 92bf 785c 08bf
00000010: cdcc 46bf ff53 6b3f 4d29 2240 24e9 82bd
00000020: 3350 3abf

U f4 [3, 3]
1.7829589 -0.68412125 0.47496647 -1.607703 0.9749425 0.29772803 0.7482923 -0.34431767
1.8956411
00000000: ff37 e43f 9222 2fbf ce2e f33e 36c9 cdbf
00000010: d595 793f cf6f 983e 1690 3f3f 684a b0be
00000020: 5ea4 f23f

hid_bias f4 [3]
0.7724299 0.0036207945 -0.056111325
00000000: f7bd 453f da4a 6d3b fdd4 65bd

V f4 [3, 3]
-0.28628644 -2.9462411 11.233562 1.5225224 2.6754086 -7.251247 -5.6475964 -0.055193327
21.14682
00000000: 2394 92be 378f 3cc0 acbc 3341 04e2 c23f
00000010: e539 2b40 370a e8c0 1cb9 b4c0 6612 62bd
00000020: b02c a941

out_bias f4 [3]
-2.2681196 2.9945493 -1.6003985
00000000: df28 11c0 b2a6 3f40 dcd9 ccbf
