net/anbn_srn2_90.pth (torch, 2111 bytes, 6 tensors)

H0 f4 [2]
-0.8010965 1.5226101
00000000: a914 4dbf e3e4 c23f

W f4 [2, 2]
1.0604777 -1.1701576 -1.1904104 2.4628847
00000000: bcbd 873f b9c7 95bf 5e5f 98bf e79f 1d40

U f4 [2, 2]
3.8177307 -0.045486625 3.5060012 0.61743736
00000000: b355 7440 2f50 3abd 5362 6040 6010 1e3f

hid_bias f4 [2]
-0.12890449 0.35439882
00000000: 8aff 03be c373 b53e

V f4 [2, 2]
3.9982612 -3.9979563 0.5892435 -0.5884935
00000000: 83e3 7f40 84de 7fc0 a9d8 163f 83a7 16bf

out_bias f4 [2]
-2.643427 2.6437006
00000000: e82d 29c0 6432 2940
