net/anbncn_srn3_140.pth (torch, 2135 bytes, 6 tensors)

H0 f4 [3]
00000000: b02d 423f 4e53 95bf 5268 24be
0.75850964 -1.1666048 -0.1605542

W f4 [3, 3]
00000000: c907 6e3f a246 c03f 46bc a2bf 34e0 19bf
00000010: ac13 4cbf 3d91 713f 8fe2 2740 b3e2 14be
00000020: b6ef 3ebf
0.9298063 1.5021555 -1.2713706 -0.6010773 -0.79717517 0.9436224 2.623203 -0.14539604
-0.7458452

U f4 [3, 3]
00000000: f960 f53f a569 37bf f956 f53e ed7c d6bf
00000010: d26f 653f 9755 9b3e ff78 423f 5330 b1be
00000020: 57d6 f63f
1.9170219 -0.71645576 0.47917917 -1.6756874 0.8962375 0.30338737 0.75965875 -0.3460718
1.9284161

hid_bias f4 [3]
00000000: d8c0 403f 89b7 ae3b 7110 27bd
0.75294256 0.0053319377 -0.040787164

V f4 [3, 3]
00000000: bb40 adbe e4b5 40c0 e421 3b41 e864 c03f
00000010: 0d9b 2d40 eb48 e3c0 f43a bac0 c21d d53b
00000020: 8679 ac41
-0.33838448 -3.0111017 11.695774 1.5030794 2.7125885 -7.102651 -5.8196964 0.0065037915
21.559338

out_bias f4 [3]
00000000: ba6c 17c0 1d11 4540 b432 bdbf
-2.3660111 3.0791695 -1.4781098
