net/anbn_srn2_20.pth (torch, 2111 bytes, 6 tensors)

H0 f4 [2]
00000000: e3b6 a5be afe7 983f
-0.32366094 1.1945704

W f4 [2, 2]
00000000: 2049 3c3f 9560 8ebf faae 3bbf 7c15 c03f
0.7354908 -1.1123224 -0.7331387 1.5006557

U f4 [2, 2]
00000000: cb45 1a40 3882 f0bd b92c e73f cf11 5a3f
2.4105098 -0.11743587 1.8060523 0.85183424

hid_bias f4 [2]
00000000: d227 1ebc cb17 713e
-0.009653049 0.23544233

V f4 [2, 2]
00000000: aa7f 5640 8e7a 56c0 5e4e bd3e 5cea bcbe
3.351542 -3.3512301 0.36973852 -0.36897552

out_bias f4 [2]
00000000: 7291 fcbf 809a fc3f
-1.9731886 1.973465
