net/anbncn_srn3_160.pth (torch, 2135 bytes, 6 tensors)

H0 f4 [3]
000000 e9 d0 36 3f dd 8a 88 bf c2 9f aa bd
       0.7141252 -1.0667378 -0.08331253

W f4 [3, 3]
000000 12 f1 6a 3f 16 b5 c3 3f ae b6 b6 bf dd ec 32 bf
       0.91774094 1.5289638 -1.42745 -0.69892675
000010 1d bc 4f bf a1 e4 77 3f be 06 29 40 15 79 63 be
       -0.81146413 0.96833235 2.6410365 -0.22214158
000020 91 bd 45 bf
       -0.7724238

U f4 [3, 3]
000000 d2 6b 05 40 dd 43 42 bf 78 cd 00 3f 0c 3c e0 bf
       2.0847058 -0.758848 0.5031352 -1.7518325
000010 f1 b6 4e 3f 32 ec a9 3e 9a d8 44 3f b8 ba b5 be
       0.80747896 0.33188015 0.7689301 -0.35494018
000020 b3 e4 fb 3f
       1.9679168

hid_bias f4 [3]
000000 d2 9d 38 3f e7 6d f8 3b 53 8c e6 bc
       0.72115815 0.0075814608 -0.028143084

V f4 [3, 3]
000000 e5 47 b4 be e0 84 44 c0 5e ff 3d 41 8a 70 b9 3f
       -0.352111 -3.07061 11.8748455 1.4487469
000010 bb ac 31 40 86 16 dd c0 0c bf be c0 77 35 de 3c
       2.7761676 -6.9089994 -5.960821 0.027125103
000020 92 81 af 41
       21.938267

out_bias f4 [3]
000000 5c e2 1d c0 7e e4 49 40 1e 89 96 bf
       -2.4669409 3.154571 -1.1760595
