net/anbncn_srn3_60.pth (torch, 2127 bytes, 6 tensors)

H0 f4 [3]
000000 41 a4 40 3f 68 8f 99 bf f5 d0 73 be
       0.7525063 -1.1996889 -0.2381018

W f4 [3, 3]
000000 02 bc 6b 3f e5 6a 9b 3f 1a 6a 60 bf bf d9 f5 be
       0.9208375 1.2141997 -0.876619 -0.4801769
000010 f1 f2 2d bf 00 ad 5f 3f 5a c0 08 40 e1 e0 3d 3e
       -0.67948824 0.8737335 2.1367402 0.18542816
000020 1b ab 37 bf
       -0.7174546

U f4 [3, 3]
000000 04 65 b2 3f 8e 91 18 bf 0a 4f e9 3e e2 c4 b3 bf
       1.3937078 -0.595971 0.45568115 -1.4044459
000010 18 a6 8f 3f cc 93 6f 3e 65 c7 31 3f 63 b1 83 be
       1.1222563 0.23396224 0.69444877 -0.25721273
000020 ea 10 e5 3f
       1.7895787

hid_bias f4 [3]
000000 12 2c 46 3f 9f 34 a4 bb da 8d b9 bd
       0.77410996 -0.0050111557 -0.09060259

V f4 [3, 3]
000000 2c 1e 51 3e db 4d 41 c0 3e 90 07 41 fc 7e d4 3f
       0.20421666 -3.020377 8.472715 1.6601253
000010 12 c5 1b 40 07 dc dc c0 74 f7 9a c0 3b 83 ba be
       2.4339032 -6.901859 -4.8427067 -0.36428246
000020 ee 80 8b 41
       17.437954

out_bias f4 [3]
000000 84 01 08 c0 0b 82 37 40 ce f5 e0 bf
       -2.1250925 2.8673122 -1.7575014
