net/anbncn_srn3_40.pth (torch, 2127 bytes, 6 tensors)

H0 f4 [3]
0.7545068 -1.1840535 -0.19664803
00000000: 5c27 413f 118f 97bf 1a5e 49be

W f4 [3, 3]
0.88168466 1.1171812 -0.93938607 -0.54387367 -0.5995217 0.81849635 2.348028 0.19346309
-0.63075656
00000000: 16b6 613f cbff 8e3f 9b7b 70bf 4e3b 0bbf
00000010: 417a 19bf fa88 513f 1746 1640 301b 463e
00000020: 4379 21bf

U f4 [3, 3]
1.2630204 -0.56628686 0.47804314 -1.2876745 1.0541137 0.25500685 0.6168974 -0.19289929
1.6756028
00000000: a7aa a13f 2df8 10bf 12c2 f43e 85d2 a4bf
00000010: 33ed 863f 4290 823e fdec 1d3f 6487 45be
00000020: 277a d63f

hid_bias f4 [3]
0.72288185 0.009191966 -0.11732038
00000000: c90e 393f e699 163c ab45 f0bd

V f4 [3, 3]
0.7227803 -3.2636666 6.072811 1.5801344 2.343345 -5.4795475 -4.404079 -0.43832934
13.08896
00000000: 2108 393f eadf 50c0 7854 c240 d841 ca3f
00000010: 5df9 1540 7458 afc0 37ee 8cc0 b46c e0be
00000020: 616c 5141

out_bias f4 [3]
-2.2258744 2.955315 -1.6802452
00000000: ba74 0ec0 e223 3d40 4612 d7bf
