net/anbn_srn2_80.pth (torch, 2111 bytes, 6 tensors)

H0 f4 [2]
-0.79312927 1.4446648
00000000: 850a 4bbf c7ea b83f

W f4 [2, 2]
1.0487475 -1.1681987 -1.1608993 2.3285682
00000000: 5c3d 863f 8987 95bf 5998 94bf 4307 1540

U f4 [2, 2]
3.697873 -0.05080468 3.3593805 0.64064926
00000000: f4a9 6c40 9118 50bd 1700 5740 9701 243f

hid_bias f4 [2]
-0.11404605 0.349516
00000000: fa90 e9bd c3f3 b23e

V f4 [2, 2]
4.0039997 -4.003694 0.5736693 -0.57291764
00000000: c420 8040 431e 80c0 fedb 123f bbaa 12bf

out_bias f4 [2]
-2.603345 2.6036193
00000000: 349d 26c0 b3a1 2640
