net/anbncn_srn3_80.pth (torch, 2127 bytes, 6 tensors)

H0 f4 [3]
0.7457892 -1.181053 -0.21867831
00000000: 0aec 3e3f bf2c 97bf 35ed 5fbe

W f4 [3, 3]
0.9264667 1.3133215 -0.95126945 -0.4762697 -0.7299541 0.89109427 2.2361283 0.1195805
-0.7278932
00000000: ec2c 6d3f eb1a a83f 6586 73bf 9fd9 f3be
00000010: 46de 3abf c11e 643f ba1c 0f40 9fe6 f43d
00000020: 3557 3abf

U f4 [3, 3]
1.5314765 -0.6237991 0.46109954 -1.4879134 1.1129256 0.2608642 0.72484595 -0.3031573
1.8321971
00000000: 6c07 c43f 4cb1 1fbf 3d15 ec3e f273 bebf
00000010: 5974 8e3f fe8f 853e 818f 393f 6f37 9bbe
00000020: 6f85 ea3f

hid_bias f4 [3]
0.78323275 -0.00815151 -0.07937288
00000000: f181 483f e98d 05bc 408e a2bd

V f4 [3, 3]
-0.07111644 -2.9021997 9.779644 1.6394047 2.513044 -7.337829 -5.179644 -0.23247246
19.559074
00000000: 7fa5 91bd a4bd 39c0 6c79 1c41 03d8 d13f
00000010: b7d5 2040 7fcf eac0 a5bf a5c0 430d 6ebe
00000020: fc78 9c41

out_bias f4 [3]
-2.1238353 2.8664486 -1.7066814
00000000: ebec 07c0 e573 3740 8974 dabf
