net/anbn_srn2_50.pth (torch, 2111 bytes, 6 tensors)

H0 f4 [2]
00000000: b115 28bf a516 a13f
-0.656581 1.2585036

W f4 [2, 2]
00000000: 354b 773f 117c 94bf 27ab 81bf 5af9 f43f
0.9659913 -1.1600362 -1.0130357 1.9138596

U f4 [2, 2]
00000000: 16bd 4d40 c3bf 9ebd 592a 3140 7807 3f3f
3.214666 -0.077514194 2.7682097 0.7462077

hid_bias f4 [2]
00000000: 4e9f 72bd 12d6 a13e
-0.059233956 0.31608635

V f4 [2, 2]
00000000: b09e 7840 a399 78c0 b9fa 043f 10c9 04bf
3.8846855 -3.8843772 0.5194507 -0.518693

out_bias f4 [2]
00000000: 5ca5 20c0 dfa9 2040
-2.5100927 2.510368
