net/anbncn_srn3_190.pth (torch, 2135 bytes, 6 tensors)

H0 f4 [3]
00000000: 6a2f 2b3f cd74 7cbf 7ba1 103c
0.66869223 -0.98615724 0.008827562

W f4 [3, 3]
00000000: b37f 673f 4d71 cb3f 2554 d6bf 3036 40bf
00000010: 1948 5cbf 23c6 7e3f d1f2 2240 a065 86be
00000020: 4e15 4abf
0.9042923 1.5893952 -1.6744429 -0.75082684 -0.8604751 0.9952108 2.5460703 -0.2624941
-0.7893876

U f4 [3, 3]
00000000: aa57 1140 144f 4bbf 8150 013f c06e ecbf
00000010: 26ad 3a3f 80c4 b93e d233 473f fff4 c7be
00000020: 4df0 0140
2.2709756 -0.7941754 0.50513464 -1.8471298 0.72920454 0.3628273 0.77813447 -0.39054105
2.0302918

hid_bias f4 [3]
00000000: 30ea 323f 6f8f 55bb 293f 19bc
0.6988859 -0.0032586714 -0.009353437

V f4 [3, 3]
00000000: aeed d3be d9f7 48c0 9940 3f41 888a b03f
00000010: da37 3740 4198 d3c0 a5e5 c4c0 34fe c13d
00000020: 2250 b041
-0.41392273 -3.1401274 11.953271 1.3792276 2.862784 -6.6123357 -6.153033 0.094723135
22.039127

out_bias f4 [3]
00000000: 04fa 24c0 4c43 5040 1d44 6bbf
-2.5777597 3.2541075 -0.9190081
