net/anbncn_srn3_50.pth (torch, 2127 bytes, 6 tensors)

H0 f4 [3]
0	0x3f44719a	0.7673584
1	0xbf9b4934	-1.2131715
2	0xbe68f237	-0.22748648

W f4 [3, 3]
0	0x3f689599	0.9085327
1	0x3f956cb6	1.1673801
2	0xbf6075eb	-0.8767993
3	0xbf016dc8	-0.5055814
4	0xbf23584f	-0.63806623
5	0x3f5a9374	0.85381246
6	0x400a43d0	2.160389
7	0x3e3e74de	0.18599269
8	0xbf315500	-0.69270325

U f4 [3, 3]
0	0x3fa973b2	1.3238432
1	0xbf131192	-0.57448685
2	0x3eee00bb	0.46484932
3	0xbfacad94	-1.3490472
4	0x3f8cf853	1.1013283
5	0x3e709cab	0.23497264
6	0x3f29bed1	0.6630679
7	0xbe5e3ea9	-0.2170359
8	0x3fe0099a	1.750293

hid_bias f4 [3]
0	0x3f418f22	0.7560903
1	0x3af45e5a	0.0018643842
2	0xbdcf5642	-0.10123874

V f4 [3, 3]
0	0x3edfafbf	0.4368877
1	0xc04940c3	-3.1445777
2	0x40ee6beb	7.4506736
3	0x3fd35f90	1.6513538
4	0x40184fe8	2.379877
5	0xc0cab0ed	-6.3340974
6	0xc09478a2	-4.6397257
7	0xbed8861d	-0.4228982
8	0x417a7994	15.654682

out_bias f4 [3]
0	0xc00a9e77	-2.165922
1	0x403a34bf	2.9094694
2	0xbfe3ce78	-1.7797384
