net/reber_lstm4_40.pth (torch, 2700 bytes, 5 tensors)

W f4 [7, 16]
00000000: 87df d03f ed1f 733f 2fac 2c40 17e9 bd3f
00000010: 9f37 03bf 07e7 39bf fab9 fcbd 98e8 4dc0
00000020: 6d3f 1a40 cb55 143f 2bdf 0340 d425 22c0
00000030: ff7d 8940 9307 0c3f a161 ff3f 9f0f f13f
00000040: ebc7 9ebe c91f db3e c87a 9b3e 3b1a 323f
00000050: 8f0d d3bf e150 6a3f a8cb 2840 08cb 13bf
00000060: 6fe7 3fbf 0fac 09be 0be7 1d3f 3cd7 973f
00000070: 01c2 9d3f 2221 db3d dba0 183f 9000 693f
00000080: a2cd 92bf 71f3 f73e 5a99 923f f721 5dbe
00000090: c4ec c93f 486b 2e3f 69cc bdbf bfa5 3e3f
000000a0: 9c10 5dbf 706a 443c 2daf 3ac0 e321 2e3f
000000b0: 18dd 1f40 a418 31bf 3bc8 e03f dc94 8fbe
000000c0: 95a7 7d40 76e2 e7bd d7f8 aa3d a207 1b3e
000000d0: f6d6 54bf 8c35 7bbe b4e6 ffbf 44dd dbbd
000000e0: 9d08 8f3d 1919 e8bc d293 4140 4c62 f63e
000000f0: 5b21 e83f 4783 3ebe 33c7 903f d76c 603f
00000100: 4a0d 23be 39e0 383f 4694 063f 2ec3 4a3f
00000110: b770 3240 7152 953f 9afe 013f 4bed 123f
00000120: c86d 2840 5b46 a7be b084 733f 0c24 1940
00000130: 4949 1dc0 9c7c ebbd 2503 e73e 8108 9d3f
00000140: ece1 2e3c e7c6 0d3e c71b 26bf ea70 1d3e
00000150: 0fd0 b43f ea63 c03f 94b4 ca3e bea6 16bf
00000160: d804 5d3f 8d12 673c 25fc 8cbf bbb9 543e
00000170: 14fb 8640 f7d4 0940 2a0d e53f 4224 bd3d
00000180: abdb 8d40 3ac7 8cbe 4271 ea3c 5651 733f
00000190: 943f c4be d6bf 3fbe 3ab6 0640 63c9 57c0
000001a0: 8e9b f33d 6260 e8bb 712c aabf 0e23 35c0
000001b0: 937f a03f 12eb 6d40 7e1b a5c0 6e39 563f
1.6318215 0.9497059 2.6980093 1.4836758 -0.51256746 -0.72618145 -0.1234016 -3.2173214
2.4101212 0.5794341 2.060496 -2.5335588 4.2966304 0.5469906 1.9951669 1.8832892
-0.310119 0.42797688 0.30367112 0.69571275 -1.6488513 0.9152966 2.6374302 -0.57731676
-0.74962515 -0.13444541 0.6168067 1.1862559 1.232483 0.10699679 0.59620446 0.91016483
-1.1469004 0.4842792 1.1453049 -0.21594988 1.577538 0.6813245 -1.4828006 0.7447166
-0.8635347 0.011988267 -2.916942 0.6802046 2.4978695 -0.69178224 1.7561105 -0.28043258
3.9633534 -0.11322491 0.08348244 0.1513963 -0.83140504 -0.24532145 -1.999228 -0.107355624
0.06984065 -0.02833228 3.0246472 0.4812187 1.8135179 -0.18604766 1.1310791 0.87666076
-0.15923038 0.72217137 0.5257 0.7920407 2.7881296 1.1665784 0.50779116 0.5739333
2.6317005 -0.32670864 0.9512434 2.3928251 -2.457598 -0.11498377 0.45119587 1.226822
0.010673981 0.13845406 -0.64886135 0.15375105 1.4125994 1.5030491 0.39590895 -0.5884818
0.86335516 0.014103544 -1.1014448 0.20773976 4.218149 2.1536233 1.7894642 0.09235431
4.433065 -0.27495748 0.028618459 0.95045984 -0.38329756 -0.18725523 2.1048722 -3.3716667
0.11894904 -0.007091568 -1.3294812 -2.8302646 1.2538933 3.7174726 -5.159606 0.8368138

U f4 [4, 16]
00000000: a608 0d40 bd2e a93f bb88 7840 0b93 9d3f
00000010: f9f9 c1be 653b a93f ba24 bf3d d7a2 d8bf
00000020: a69d 783f 835b 263e 4c6d debc ac89 ba3d
00000030: 264a 55c0 2777 04bf 1419 4840 ef22 8a3f
00000040: 525a 83be 0e38 5cbe 407a fdbd 3e52 82bf
00000050: e5c2 21c0 8f17 c6bf a974 66bf 61aa fbbd
00000060: c263 1abf 2c8b 1940 8f1a af3f 7f0b 6ebf
00000070: 86d8 64be e887 23bf 079f 32bf 7f7f 8fbf
00000080: e4c7 8740 1161 963f 574f 2ec0 73a5 7f3f
00000090: f3a7 b5bf 1d66 a0bf 90df 9bbf b9af 44bf
000000a0: c3f0 ffbf 9372 91bf ea90 2c3f 2065 f43d
000000b0: 5f3b 3540 56eb 2a3f 7f0f bb40 2a31 643f
000000c0: a628 a9be f240 a03e dd93 8b3f 7bdd 023f
000000d0: 793e 0240 70e3 c5bf 5eab 19c0 7372 033f
000000e0: 5428 0740 9593 0cc0 98ec b83e aacf 6cbf
000000f0: 85e6 37c0 f891 83bf 2207 2abf 6700 333f
2.2036529 1.3217388 3.8833454 1.2310499 -0.37886027 1.3221251 0.09333177 -1.6924695
0.9711555 0.16245846 -0.027151726 0.0910829 -3.3326507 -0.5174431 3.1265306 1.0791911
-0.25654846 -0.21505758 -0.12376833 -1.0181348 -2.5275204 -1.547594 -0.9002176 -0.122883566
-0.6030847 2.3991194 1.367998 -0.9298629 -0.22348222 -0.6387925 -0.69773906 -1.1210784
4.2431507 1.1748372 -2.7235925 0.9986183 -1.4191879 -1.2531163 -1.2177601 -0.7683063
-1.999535 -1.136309 0.6740862 0.119333506 2.8317487 0.66765344 5.8456416 0.8913752
-0.33038825 0.3129955 1.0904499 0.511192 2.035063 -1.5460033 -2.4010844 0.5134651
2.1118364 -2.1965077 0.36118007 -0.9250437 -2.8734448 -1.0278921 -0.66417134 0.6992249

hid_bias f4 [16]
00000000: 594c 9e3f 0c11 c23f a210 2740 4751 5c40
00000010: 9446 503e e94e 4c3f 2f07 90be 8a78 82bf
00000020: 7b3b 543f ab81 a6be af21 123f 8415 383c
00000030: f8b1 ee3f b538 a03f fa3c 3240 36e4 6440
1.236705 1.5161452 2.6103902 3.4424608 0.20339423 0.7980791 -0.2813048 -1.0193036
0.8290326 -0.32520804 0.5708265 0.0112355985 1.8648062 1.2517306 2.7849717 3.576429

V f4 [4, 7]
00000000: bb43 37c0 31da f8bd 77a7 b0c0 ee7c c4c0
00000010: 73ab 4a40 4d5a 2c40 9c5c dfbf b29d 2941
00000020: f4a9 66bf 2af5 ffbc f0c5 fabe ad57 b3be
00000030: 6595 6ebf 8aec 8f40 f169 4740 d509 6a40
00000040: 96d6 afbe d805 a6be 5017 46be 8dc4 903f
00000050: 2a24 98c1 53a3 9840 2849 f8bf 0c06 4340
00000060: 67cf 3c40 ef00 61c0 56c1 e43f f1af 3a40
-2.863509 -0.12150992 -5.5204425 -6.14025 3.1667144 2.6930115 -1.7450137 10.601
-0.9010308 -0.031244833 -0.4897914 -0.3502783 -0.9319671 4.4976244 3.1158412 3.65685
-0.34343404 -0.32426333 -0.1934483 1.1309983 -19.017658 4.769937 -1.9397326 3.047244
2.9501588 -3.515682 1.7871501 2.9169886

out_bias f4 [7]
00000000: 429e 6dbf 9d94 603f f232 693f 0287 913e
00000010: 2ae7 0e3e a8e1 a2bf 3e9f 9ec0
-0.9281961 0.87726766 0.9109336 0.28423315 0.1395537 -1.2725115 -4.9569387
