net/reber_srn2_40.pth (torch, 2119 bytes, 6 tensors)

H0 f4 [2]
1.4016713 -0.02369184
00000000: f769 b33f 6415 c2bc

W f4 [7, 2]
-2.0500853 3.614313 2.1169548 2.7243025 -2.744183 0.022965796 2.4041302 -2.163292
7.1292534 -6.459029 1.1914215 -0.22908325 1.5456288e-38 6.1507126e-38
00000000: 9934 03c0 e750 6740 307c 0740 f95a 2e40
00000010: b2a0 2fc0 c422 bc3c 45dd 1940 6073 0ac0
00000020: d822 e440 5eb0 cec0 8080 983f cd94 6abe
00000030: d84d a800 3670 a701

U f4 [2, 2]
1.0491734 0.119500846 2.6066444 3.2795236
00000000: 504b 863f dcbc f43d 43d3 2640 b7e3 5140

hid_bias f4 [2]
0.30915642 -1.2453071
00000000: c049 9e3e 3966 9fbf

V f4 [2, 7]
-0.38903922 0.12485573 4.4340825 4.4782476 -3.6363451 -1.1092379 -12.111477 0.45050701
0.7297276 2.8036606 3.308708 -0.8319991 -2.759836 -3.9893088
00000000: 2630 c7be 5cb4 ff3d 01e4 8d40 ce4d 8f40
00000010: e1b9 68c0 82fb 8dbf 9cc8 41c1 dba8 e63e
00000020: 6ecf 3a3f 2d6f 3340 dfc1 5340 e5fd 54bf
00000030: 27a1 30c0 d650 7fc0

out_bias f4 [7]
-5.9811544 2.073276 -0.5435822 -0.7294414 1.1622281 0.15056166 -5.591948
00000000: 9e65 bfc0 8eb0 0440 3428 0bbf acbc 3abf
00000010: e4c3 943f d62c 1a3e 3df1 b2c0
