net/reber_lstm4_30.pth (torch, 2700 bytes, 5 tensors)

W f4 [7, 16]
00000000: 0f63 e93f 4863 513f 74db 2b40 6182 d73f
00000010: e9ab 5dbf b562 55bf 05a0 7a3e 00de 5fc0
00000020: 7b72 1a40 4cb1 153f 1a75 0540 3764 24c0
00000030: e0cd 8240 2cba 653f 8a36 0340 badb 0d40
00000040: 494b 56be d6e9 043f 31b6 383f 2f00 1b3f
00000050: 646f c5bf 0980 573f eeee 1540 8d83 d2be
00000060: 05ee 33bf f749 26be 6161 603f f66f 913f
00000070: cb22 b13f c2fe 8c3d 38f1 743f e2d7 513f
00000080: cd22 44bf 7556 093f 7d1d a83f d0d5 e3bd
00000090: 38b9 b03f 2b42 2d3f 3803 bbbf 6aa8 4e3f
000000a0: 01f6 4abf 00aa ef3b ac12 40c0 21b9 513f
000000b0: 34f0 3040 d068 8cbe 7360 e03f 6902 833e
000000c0: a138 6e40 8a6b 283c aa2f 3d3e b43b 523e
000000d0: fa9a 19bf 3b39 4dbe 0eb4 f6bf 5c47 edbd
000000e0: a3d9 5c3d da2c ecbc 274c 4440 1adf f13e
000000f0: 9fcf ec3f ed68 86be 4b97 8b3f 8b1b 773f
00000100: d8b8 09be 5317 403f 4c36 be3e 8797 543f
00000110: 9994 2240 4b28 9e3f f90e f53e b519 0c3f
00000120: 88b1 1440 9c46 8bbe d170 4e3f a8fb 1c40
00000130: af66 22c0 28a7 1abe aa6d ae3e 6d85 bc3f
00000140: 8680 a23c d888 303e 661d 10bf fb0b 533e
00000150: b184 0840 ac96 e83f 4a63 b63e 2221 1cbf
00000160: 49e9 903f 32fd e3ba 13a6 8cbf b4de 313e
00000170: 0262 8c40 7cd1 1840 edeb 1040 902f 943d
00000180: 2208 5b40 11da 223e 4c3d 563c ff1c 643f
00000190: bc22 dbbb 4441 9e3e b680 1e40 42ba 43c0
000001a0: 4e70 403c d602 9fbc 2fa6 a4bf 038f 35c0
000001b0: 1218 663f 50fb 7640 e3a0 abc0 5c1f 463f
1.8233355 0.81792116 2.6852694 1.6836663 -0.8659044 -0.8335374 0.24475105 -3.4979248
2.4132373 0.5847366 2.0852723 -2.5686166 4.087631 0.897372 2.0502038 2.216536
-0.20927157 0.51919305 0.72153 0.60547155 -1.5424619 0.8417974 2.342708 -0.4111599
-0.70285064 -0.16239153 0.8764859 1.1362293 1.3838743 0.06884529 0.9568057 0.81970036
-0.766156 0.5364755 1.3133999 -0.11124766 1.3806524 0.6767909 -1.4610357 0.8072573
-0.7928162 0.0073139668 -3.0011396 0.8192311 2.7646608 -0.27423716 1.7529434 0.25587776
3.7222064 0.010279546 0.18475214 0.20530587 -0.600021 -0.20041363 -1.9273698 -0.11585876
0.053918492 -0.02882998 3.067148 0.47240525 1.8500861 -0.26251927 1.0905546 0.965264
-0.13449419 0.7503559 0.371508 0.8304371 2.5403197 1.2356046 0.47862986 0.54726726
2.3233356 -0.27202308 0.80640894 2.4528599 -2.5375173 -0.15102828 0.34068042 1.4728218
0.019836675 0.17239702 -0.5629486 0.20610039 2.1330988 1.8170981 0.35622627 -0.60988057
1.1321193 -0.0017394184 -1.0988182 0.17370111 4.386964 2.387786 2.2643998 0.07235634
3.4223714 0.15903498 0.013076138 0.89106745 -0.0066874903 0.3090917 2.476606 -3.0582433
0.0117455255 -0.019410532 -1.2863215 -2.8368537 0.8988048 3.859089 -5.3633895 0.773916

U f4 [4, 16]
00000000: a101 eb3f 25bc a43f 692a 7340 3a02 9c3f
00000010: 7de4 10bf ecc7 8b3f b66d 103d 35c4 d3bf
00000020: d15d 4e3f 33ff 963d bb48 823c 556d d43d
00000030: 22bf 47c0 310d 07bf df29 1740 842d 713f
00000040: 7d29 c0bd 0a24 debe 139e 5fbe b2d9 79bf
00000050: b248 31c0 6380 c9bf ca3f 1dbf cfd5 b8bd
00000060: aec4 19bf 5f2a 1940 905d a83f 62e6 6fbf
00000070: ac63 67be b449 20bf a889 0dbf f1c2 a6bf
00000080: ca5d 8840 3087 9d3f f6d4 27c0 3075 a03f
00000090: e96c d8bf aa0d a7bf ae6b 7cbf 8065 3bbf
000000a0: 26a5 f2bf 5b1d 8bbf d38c 453f a800 093e
000000b0: d31e 3140 b9ee 2a3f fa58 bd40 fb77 7e3f
000000c0: cd3c c7be 9c58 b13e 9899 8d3f 4b9b 103f
000000d0: 0ad6 eb3f 4037 d0bf 55e7 14c0 3999 e33e
000000e0: 13c9 0540 daca 0ac0 ff32 ab3e f360 6bbf
000000f0: 3dba 3ac0 5267 84bf 1c6e 12bf 624c 733f
1.8359872 1.2869917 3.7994635 1.218818 -0.56598645 1.0920386 0.03526088 -1.6544253
0.806119 0.07372894 0.015903821 0.10372416 -3.1210408 -0.52754503 2.3619306 0.94210076
-0.09382913 -0.4338687 -0.21837644 -0.975978 -2.770062 -1.5742306 -0.6142546 -0.09025156
-0.60065734 2.3932111 1.3153553 -0.9371091 -0.22596616 -0.6261246 -0.5528817 -1.3028241
4.261449 1.2306881 -2.622373 1.2535763 -1.6908237 -1.3051045 -0.98601806 -0.7320175
-1.8956649 -1.0868334 0.77168006 0.13379157 2.7675064 0.6677051 5.9171114 0.99401826
-0.38913575 0.34637916 1.1062498 0.5648696 1.8424695 -1.6266861 -2.3266194 0.44452837
2.0903976 -2.168631 0.33437344 -0.9194481 -2.917617 -1.0344031 -0.57199264 0.95038426

hid_bias f4 [16]
00000000: a461 a43f 62b8 c73f 44eb 2840 3224 5c40
00000010: 6b10 13bb 9394 3f3f bce3 a5be 14d0 79bf
00000020: c1a8 4c3f b18f 9fbe 9548 0d3f fd0a f9bc
00000030: e862 de3f 78a7 a13f 8502 2d40 7222 6440
1.2842298 1.5603144 2.6393595 3.4397092 -0.0022440206 0.7483608 -0.3240031 -0.9758313
0.79945 -0.31164315 0.55188876 -0.030400747 1.7373934 1.2629232 2.7032788 3.5646024

V f4 [4, 7]
00000000: bd68 46c0 b9c6 c7bc 56ae a5c0 c7e1 b6c0
00000010: c75f 3740 a61b 1f40 8ad7 22bf d880 2541
00000020: d02d 52bf 31c4 c3bc 810b f9be 2b84 e8be
00000030: b96e 61bf 85fc 5240 4efb 3940 23b1 5a40
00000040: 3f78 8fbe ad3d 69be 2bfd 8ebb 2f85 8e3f
00000050: 5f7c 85c1 8ab1 9340 b027 f0bf 17fd 3240
00000060: 12ec 2f40 b842 50c0 4f33 ce3f 2fd0 1540
-3.1001427 -0.02438675 -5.1775312 -5.7150607 2.8652208 2.4860625 -0.63610137 10.343956
-0.82101154 -0.023897262 -0.4864159 -0.45413336 -0.88059574 3.2966626 2.9059634 3.4170616
-0.28021428 -0.22777434 -0.004363676 1.1134394 -16.685728 4.6154222 -1.8762112 2.7966974
2.7487836 -3.2540722 1.6109408 2.3408315

out_bias f4 [7]
00000000: a973 a0bf d460 593f 8c96 543f cdbe 833e
00000010: 8791 1c3e 8ccb 96bf 2352 8cc0
-1.2535297 0.84913373 0.83042216 0.25731507 0.1528989 -1.1780868 -4.3850265
