net/reber_srn2_20.pth (torch, 2119 bytes, 6 tensors)

H0 f4 [2]
000000 4c 43 d1 3f 16 35 04 3e
       1.6348662 0.12910876

W f4 [7, 2]
000000 cb 5b f0 bf 56 51 56 40 1a 09 14 40 c8 99 ac 3f
       -1.8778013 3.3487144 2.3130555 1.348443
000010 15 e5 b5 bf e2 a8 2a 3e 4a b1 09 40 22 c0 01 c0
       -1.4210535 0.16665986 2.1514459 -2.0273519
000020 23 7c c3 40 64 80 af c0 b0 09 ca bf ec c6 f8 3f
       6.1089034 -5.4844227 -1.5784206 1.9435706
000030 d8 4d a8 00 36 70 a7 01
       1.5456288e-38 6.1507126e-38

U f4 [2, 2]
000000 ec 75 17 be f4 32 3d 3e 87 22 0c 40 8e 00 41 40
       -0.14791077 0.18476468 2.1896074 3.0156589

hid_bias f4 [2]
000000 8f e9 ab 3e ec 07 aa bf
       0.3357663 -1.3283668

V f4 [2, 7]
000000 9c 98 15 bc 8b a7 0b be a1 19 58 40 18 11 58 40
       -0.009130623 -0.13638131 3.3765643 3.3760433
000010 a1 4b 41 c0 97 5a 5b bf 10 27 6b c0 ad f4 fc 3e
       -3.020241 -0.85685104 -3.6742592 0.49405423
000020 6a fb b0 3e 91 80 f6 3f 58 14 18 40 17 d5 41 3d
       0.34566814 1.9257985 2.3762417 0.04732236
000030 9f e5 17 c0 37 b7 0f c0
       -2.37339 -2.2455575

out_bias f4 [7]
000000 c1 a2 c3 c0 02 6e ee 3f d2 d4 96 bd 40 e8 93 be
       -6.1136174 1.8627322 -0.07364811 -0.2888813
000010 0f 86 cf bb 7e 38 64 3e ba d9 e0 bf
       -0.0063331197 0.22287175 -1.7566445
