net/reber_srn2_0.pth (torch, 2111 bytes, 6 tensors)

H0 f4 [2]
000000 68 56 a3 3a 3c 1c 91 b9
       0.0012461664 -0.0002767759

W f4 [7, 2]
000000 57 81 c3 ba b5 8e bb ba 4c ae 56 38 e6 5b 89 39
       -0.0014915866 -0.0014309498 5.1183903e-05 0.00026199146
000010 70 6d 3f b6 65 39 55 3a 68 cc 11 39 60 1a ea b5
       -2.852492e-06 0.00081338576 0.00013904425 -1.7442035e-06
000020 17 2d 99 3a ec fe c5 ba 05 0e 6d 3a 38 3d a1 ba
       0.0011686411 -0.001510588 0.00090429216 -0.001230157
000030 ec a7 60 39 14 cd 56 b9
       0.0002142486 -0.00020485028

U f4 [2, 2]
000000 54 99 16 bb 0b c5 2a 3a 34 5e 18 b9 50 75 fb 39
       -0.0022979574 0.0006514347 -0.00014530943 0.00047961855

hid_bias f4 [2]
000000 18 6d 74 b9 50 4a a6 ba
       -0.00023310294 -0.0012686942

V f4 [2, 7]
000000 19 81 ee 3a 53 20 f6 ba 60 d5 00 3b c0 b5 b6 38
       0.0018196433 -0.0018777944 0.0019658431 8.71229e-05
000010 bd 66 00 bb 20 73 fe b9 40 f9 2c bb c0 e4 b7 38
       -0.0019592487 -0.0004853243 -0.0026393682 8.768728e-05
000020 3e c8 58 3b 98 c9 2a 3b 9e 7a a5 3a 70 78 77 ba
       0.0033078338 0.00260601 0.0012625044 -0.0009440249
000030 22 aa 8f ba 74 29 d9 39
       -0.0010960738 0.0004142035

out_bias f4 [7]
000000 07 d0 8f ba 80 22 a4 b7 da 96 c3 ba 84 aa 20 bb
       -0.0010972031 -1.9566389e-05 -0.0014922277 -0.0024515698
000010 e1 8d bc 3a d8 dc 0e 3b 34 2c 04 ba
       0.0014385545 0.0021799114 -0.0005041987
