net/reber_lstm4_10.pth (torch, 2700 bytes, 5 tensors)

W f4 [7, 16]
000000 0d c3 de 3f 31 2a bb 3f da 24 cd 3e ed 45 02 40
       1.7403275 1.4622251 0.40067178 2.035518
000010 cc af 02 c0 a7 38 4c 3f 8e 05 07 40 9e 83 a1 3c
       -2.0419798 0.79773945 2.109714 0.01971608
000020 59 95 23 bf f1 00 a5 bf 3d 1c 40 3f c1 b0 b0 bf
       -0.6389976 -1.2890912 0.7504309 -1.3803941
000030 7e 65 51 40 19 62 aa 3f 4f 75 d9 3f 9d 03 12 40
       3.2718196 1.3311187 1.6988925 2.2814705
000040 5f 5c 47 3e da 71 02 bf 08 ec eb 3e 14 34 79 3f
       0.1946883 -0.50954974 0.46078515 0.9734509
000050 26 1a 8d bf e7 ec 2b bf 08 7a 87 3f 0d 74 7a bf
       -1.1023605 -0.6715836 1.0584116 -0.9783333
000060 ff 87 f1 be 0a 22 0f 3f 77 f7 81 3f 96 0a 94 3f
       -0.4717407 0.55911314 1.0153645 1.156573
000070 f6 4a f8 3f 0d d6 5b 3e 9d 2a 00 c0 a0 48 aa 3f
       1.9397876 0.21468373 -2.002601 1.3303413
000080 57 3d 24 40 b8 ea 0b 40 89 2d bd bf 50 9c cb 3f
       2.566244 2.186201 -1.4779521 1.5907078
000090 c0 21 d6 3f ff 3b 13 c0 b6 41 06 c0 55 53 e9 3f
       1.672905 -2.3005369 -2.0977607 1.8228556
0000a0 d0 b5 51 40 3a 75 55 bf d2 81 10 c0 ec 68 8c 3e
       3.276722 -0.83382 -2.2579236 0.274238
0000b0 b6 f7 f5 3f fc b9 27 40 ed ab 18 c0 72 b1 d4 3f
       1.921622 2.6207266 -2.3854935 1.6616652
0000c0 90 e6 2f 3f 08 d0 d8 3f 2c 2a 2f 40 c5 29 9c bf
       0.68711185 1.6938486 2.736949 -1.2200247
0000d0 0d d4 fa 3d 61 fc 62 bf 7d 35 94 bf 18 60 dd bf
       0.12247477 -0.8866635 -1.1578823 -1.729495
0000e0 14 f5 5c 3e 34 7e 51 3f ba 99 ee 3d 9a f1 ae 3f
       0.21577865 0.81833196 0.11650415 1.3667481
0000f0 8c 37 bc 3c 1c 35 0c 3e 79 a7 2c 3f 9a 07 2c 3f
       0.022975706 0.13692135 0.67443043 0.671991
000100 f6 31 f6 be fb 9b b4 bc df f9 d5 3f ae 8b 46 3d
       -0.48084992 -0.022047034 1.671688 0.048473053
000110 a7 fb d7 3f b5 28 2e 3f 99 41 14 40 b2 cb 9b bf
       1.6873673 0.68030864 2.3165038 -1.2171538
000120 20 69 82 bf 4e ab 98 3f 49 49 e6 3f f0 c3 a3 3f
       -1.0188332 1.1927278 1.7991115 1.279417
000130 b5 57 34 40 23 c7 e4 3f de ae 6f 3f b6 da ae be
       2.8178532 1.7873272 0.936262 -0.34151238
000140 1d 40 e0 3f 01 2e d4 3e 71 91 b5 3f c9 5f 11 40
       1.7519566 0.41441348 1.418501 2.2714713
000150 c7 81 84 be 6b dd b0 3f 29 67 25 40 da 71 d6 bf
       -0.25880262 1.3817571 2.5844214 -1.6753495
000160 c4 9b 00 40 45 3d 31 be 89 9a f6 3f 20 d7 40 c0
       2.0095072 -0.17308529 1.926591 -3.0131302
000170 fc 93 95 3f fb 48 f5 3e 35 0a ba 3e 02 a8 2e 40
       1.1685786 0.47907242 0.36335912 2.7290044
000180 3d 18 29 3f 3d 2b 20 40 5a 35 3f 40 e2 02 34 40
       0.6605261 2.502639 2.9876313 2.812676
000190 5d 45 c9 3f 02 04 65 40 6f 65 0d 3e f1 40 80 3f
       1.5724293 3.5783696 0.13808225 1.0019819
0001a0 f2 2d cb 3f 77 ac 62 c0 9a 8e 74 40 71 25 45 c0
       1.5873396 -3.5417764 3.8212037 -3.0804102
0001b0 6b 76 a7 c0 94 b0 18 c0 a0 0a b7 40 5f 54 9e 3f
       -5.2332053 -2.3857775 5.720047 1.2369498

U f4 [4, 16]
000000 db a8 35 3f 92 a8 03 40 fc 84 00 3d 65 71 85 be
       0.7096078 2.0571637 0.031376824 -0.26063076
000010 8d 76 85 3f 49 5d a9 3e 36 b8 d1 bf 6b 8c 19 40
       1.0426804 0.33078983 -1.6384342 2.3991954
000020 81 5e 1f 3f f7 60 20 3f 7d 89 c1 bf 0e 71 da be
       0.62253577 0.62647957 -1.5120083 -0.4266438
000030 1f aa 17 bf cd 98 4b 3f f7 ef 65 bf dd 4c 23 3f
       -0.5924396 0.7953003 -0.8981928 0.6378916
000040 7d a1 8a bf 08 1f 02 3f eb 4a a0 3e 09 d1 32 3f
       -1.0830532 0.508286 0.31307158 0.6985021
000050 b4 c9 9b be 63 04 4e bf 3b d9 65 3f 20 56 0b c0
       -0.30427325 -0.80475444 0.8978459 -2.1771317
000060 7c b9 a9 bf 7c 2c 1d bf e5 9d b7 3f 7f 24 63 bf
       -1.325973 -0.61396 1.434506 -0.88727564
000070 dc ed 03 3f ae 98 9a bf 02 e4 63 3f a1 db ae bc
       0.5153482 -1.2077844 0.8901979 -0.021344962
000080 ce 48 0a 40 d7 4b cf 3f 39 bb 8d 3f 1d 8a a5 3f
       2.1606936 1.619502 1.1072761 1.2932774
000090 e3 21 59 bf 29 b9 1e 3d 0f b3 6c 3f 0c f7 68 bd
       -0.8481733 0.0387508 0.9246072 -0.056876227
0000a0 4e 46 9a 3f 95 41 88 3e e4 4e 8d bf a5 fd d9 3d
       1.2052705 0.26612535 -1.10397 0.10644082
0000b0 fd e5 0e 40 9b 89 ec 3f 67 16 ca be 28 42 99 3f
       2.2327874 1.8479494 -0.39470217 1.1973314
0000c0 14 ba 8b bf ac eb 5d 3e ab 9f a6 3d 56 b1 c4 bf
       -1.0916162 0.21671933 0.08135923 -1.5366619
0000d0 90 f2 5f c0 dc d3 03 c0 7b ca aa bf 91 4d 85 bf
       -3.4991798 -2.0598059 -1.3343042 -1.0414296
0000e0 b4 21 ad 3e 57 a4 af 3f 33 47 ab bf 35 f0 06 3e
       0.33814776 1.3722028 -1.3381103 0.13177569
0000f0 43 06 9c bd 62 ae 52 3f 9f 23 a1 40 29 c9 25 bf
       -0.07618382 0.8229734 5.0355983 -0.6476007

hid_bias f4 [16]
000000 fc 42 1f 40 a4 11 b8 3f bf 07 c0 3f 0a 40 15 40
       2.4884634 1.4380383 1.5002364 2.3320336
000010 6b d4 bf 3e 2d 00 03 bf af 0a c2 bc 80 b7 38 bf
       0.3746675 -0.51172143 -0.023686735 -0.72155
000020 c2 97 e5 be 6c ea b2 bd 74 3b 2f 3f b3 44 9d 3e
       -0.44842345 -0.08736119 0.68450093 0.30716476
000030 18 ce 86 3f 42 9f fa 3f 8e 71 5c 3f a4 b2 45 40
       1.0531645 1.9579852 0.8611077 3.0890284

V f4 [4, 7]
000000 a2 b4 b8 c0 4d 76 13 c0 a4 8f d6 3f ef 85 f6 3f
       -5.77205 -2.3040955 1.6762586 1.9259623
000010 5d b3 b9 bf 64 9e 45 be 68 cc 82 40 c4 9a 9d c0
       -1.4507862 -0.19298702 4.087452 -4.9251423
000020 45 86 5c bf a3 2e 0e 40 1a f4 e7 3f 1a 58 81 bf
       -0.8614238 2.2215965 1.8121369 -1.0105011
000030 c3 cf f6 3f c9 56 a0 c0 64 b0 be c0 17 66 c9 3f
       1.9282154 -5.010594 -5.959032 1.573428
000040 c1 d1 5f c0 9a e4 52 c0 23 d2 e9 3f 83 e2 d4 3f
       -3.4971774 -3.2952027 1.8267254 1.6631626
000050 93 08 9b c0 82 d8 95 40 5f 0c 8e bd 22 db d3 3f
       -4.8447967 4.682679 -0.06935953 1.6551249
000060 21 e5 02 40 8b f9 bd bf fb 6f dd 3e cf 58 9d bf
       2.045235 -1.484178 0.43249497 -1.2292727

out_bias f4 [7]
000000 c7 88 d4 bf 80 f1 e6 3e 38 bf 8e 3e 56 25 a6 3d
       -1.6604241 0.45106125 0.27880263 0.0811259
000010 ce 20 a3 be 9b af b5 be 10 cd 6f bf
       -0.31860965 -0.3548554 -0.93672276
