net/reber_srn2_30.pth (torch, 2119 bytes, 6 tensors)

H0 f4 [2]
1.3913573 -0.034057464
00000000: ff17 b23f d77f 0bbd

W f4 [7, 2]
-2.0587053 3.6023178 1.9996061 2.6818862 -2.4421558 0.020031711 2.2955494 -2.1585743
6.8833528 -6.2512345 1.1599702 1.2053313 1.5456288e-38 6.1507126e-38
00000000: d4c1 03c0 608c 6640 18f3 ff3f 06a4 2b40
00000010: 484c 1cc0 8b19 a43c 48ea 1240 1526 0ac0
00000020: 6d44 dc40 1d0a c8c0 e779 943f 4c48 9a3f
00000030: d84d a800 3670 a701

U f4 [2, 2]
0.9845248 0.15795973 2.4217598 3.2045846
00000000: d109 7c3f 32c0 213e 1dfe 1a40 ea17 4d40

hid_bias f4 [2]
0.24919887 -1.2690195
00000000: fd2d 7f3e 3b6f a2bf

V f4 [2, 7]
-0.19685607 0.05420176 3.930393 3.934519 -3.145582 -0.7362628 -7.336702 0.5243377
0.596368 2.493401 2.9369762 -0.64077765 -2.4661784 -3.1481757
00000000: a394 49be aa02 5e3d 8f8b 7b40 29cf 7b40
00000010: 3751 49c0 b87b 3cbf 43c6 eac0 ff3a 063f
00000020: 93ab 183f e293 1f40 6bf7 3b40 010a 24bf
00000030: ded5 1dc0 b67b 49c0

out_bias f4 [7]
-6.156417 1.8805901 -0.29701188 -0.5247771 0.8003665 0.03403524 -2.7650654
00000000: 5e01 c5c0 2db7 f03f f111 98be cb57 06bf
00000010: d2e4 4c3f 8968 0b3d d5f6 30c0
